…
-60,"elapsed":1101,"user":{"displayName":"Etienne Koa","userId":"11810615111108491499"}},"outputId":"0bf21832-6a72-4695-d165-306203d39fed"},"outputs":[{"output_type":"stream","name":"stdout","text":["Model: \"model\"\n","_________________________________________________________________\n"," Layer (type)                Output Shape              Param #   \n","=================================================================\n"," input_1 (InputLayer)        [(None, 8)]               0         \n","                                                                 \n"," multi_category_encoding (M  (None, 8)                 0         \n"," ultiCategoryEncoding)                                           \n","                                                                 \n"," dense (Dense)               (None, 32)                288       \n","                                                                 \n"," re_lu (ReLU)                (None, 32)                0         \n","                                                                 \n"," dense_1 (Dense)             (None, 32)                1056      \n","                                                                 \n"," re_lu_1 (ReLU)              (None, 32)                0         \n","                                                                 \n"," dropout (Dropout)           (None, 32)                0         \n","                                                                 \n"," regression_head_1 (Dense)   (None, 1)                 33        \n","                                                                 \n","=================================================================\n","Total params: 1377 (5.38 KB)\n","Trainable params: 1377 (5.38 KB)\n","Non-trainable params: 0 (0.00 Byte)\n","_________________________________________________________________\n","16/16 [==============================] - 0s 2ms/step\n"]},{"output_
…
